…
l_2 = SSDNet1D()\n","# num_total_learnable_params_2 = sum(i.numel() for i in model_2.parameters() if i.requires_grad)\n","# # print('Number of learnable params: {}.'.format(num_total_learnable_params_2))\n","\n","# check_point = torch.load('./data/End2End-pretrained/Res_TSSDNet_time_frame_61_ASVspoof2019_LA_Loss_0.0017_dEER_0.74%_eEER_1.64%.pth',map_location ='cpu')\n","# model_2.load_state_dict(check_point['model_state_dict'])\n","# model_2 = model_2.to(device)\n","# model_2.eval()"],"execution_count":7,"outputs":[{"output_type":"execute_result","data":{"text/plain":["DilatedNet(\n","  (conv1): Conv1d(1, 16, kernel_size=(7,), stride=(1,), padding=(3,), bias=False)\n","  (bn1): BatchNorm1d(16, eps=1e-05, momentum=0.1, affine=True, track_running_stats=True)\n","  (DCM1): DilatedCovModule(\n","    (cv1): Conv1d(16, 8, kernel_size=(3,), stride=(1,), padding=(1,), bias=False)\n","    (cv2): Conv1d(16, 8, kernel_size=(3,), stride=(1,), padding=(2,), dilation=(2,), bias=False)\n","    (cv4): Conv1d(16, 8, kernel_size=(3,), stride=(1,), padding=(4,), dilation=(4,), bias=False)\n","    (cv8): Conv1d(16, 8, kernel_size=(3,), stride=(1,), padding=(8,), dilation=(8,), bias=False)\n","    (bn1): BatchNorm1d(8, eps=1e-05, momentum=0.1, affine=True, track_running_stats=True)\n","    (bn2): BatchNorm1d(8, eps=1e-05, momentum=0.1, affine=True, track_running_stats=True)\n","    (bn4): BatchNorm1d(8, eps=1e-05, momentum=0.1, affine=True, track_running_stats=True)\n","    (bn8): BatchNorm1d(8, eps=1e-05, momentum=0.1, affine=True, track_running_stats=True)\n","  )\n","  (DCM2): DilatedCovModule(\n","    (cv1): Conv1d(32, 16, kernel_size=(3,), stride=(1,), padding=(1,), bias=False)\n","    (cv2): Conv1d(32, 16, kernel_size=(3,), stride=(1,), padding=(2,), dilation=(2,), bias=False)\n","    (cv4): Conv1d(32, 16, kernel_size=(3,), stride=(1,), padding=(4,), dilation=(4,), bias=False)\n","    (cv8): Conv1d(32, 16, kernel_size=(3,), stride=(1,), padding=(8,), dilation=(8,), bias=False)\n","    (bn1): BatchNorm1d(16, eps=1e-05, momentum=0.1, affine=True, track_running_stats=True)\n","    (bn2): BatchNorm1d(16, eps=1e-05, momentum=0.1, affine=True, track_running_stats=True)\n","    (bn4): BatchNorm1d(16, eps=1e-05, momentum=0.1, affine=True, track_running_stats=True)\n","    (bn8): BatchNorm1d(16, eps=1e-05, momentum=0.1, affine=True, track_running_stats=True)\n","  )\n","  (DCM3): DilatedCovModule(\n","    (cv1): Conv1d(64, 32, kernel_size=(3,), stride=(1,), padding=(1,), bias=False)\n","    (cv2): Conv1d(64, 32, kernel_size=(3,), stride=(1,), padding=(2,), dilation=(2,), bias=False)\n","    (cv4): Conv1d(64, 32, kernel_size=(3,), stride=(1,), padding=(4,), dilation=(4,), bias=False)\n","    (cv8): Conv1d(64, 32, kernel_size=(3,), stride=(1,), padding=(8,), dilation=(8,), bias=False)\n","    (bn1): BatchNorm1d(32, eps=1e-05, momentum=0.1, affine=True, track_running_stats=True)\n","    (bn2): BatchNorm1d(32, eps=1e-05, momentum=0.1, affine=True, track_running_stats=True)\n","    (bn4): BatchNorm1d(32, eps=1e-05, momentum=0.1, affine=True, track_running_stats=True)\n","    (bn8): BatchNorm1d(32, eps=1e-05, momentum=0.1, affine=True, track_running_stats=True)\n","  )\n","  (DCM4): DilatedCovModule(\n","    (cv1): Conv1d(128, 32, kernel_size=(3,), stride=(1,), padding=(1,), bias=False)\n","    (cv2): Conv1d(128, 32, kernel_size=(3,), stride=(1,), padding=(2,), dilation=(2,), bias=False)\n","    (cv4): Conv1d(128, 32, kernel_size=(3,), stride=(1,), padding=(4,), dilation=(4,), bias=False)\n","    (cv8): Conv1d(128, 32, kernel_size=(3,), stride=(1,), padding=(8,), dilation=(8,), bias=False)\n","    (bn1): BatchNorm1d(32, eps=1e-05, momentum=0.1, affine=True, track_running_stats=True)\n","    (bn2): BatchNorm1d(32, eps=1e-05, momentum=0.1, affine=True, track_running_stats=True)\n","    (bn4): BatchNorm1d(32, eps=1e-05, momentum=0.1, affine=True, track_running_stats=True)\n","    (bn8): BatchNorm1d(32, eps=1e-05, momentum=0.1, affine=True, track_running_stats=True)\n","  )\n","  (fc1): Linear(in_features=128, out_features=64, bias=True)\n","  (fc2): Linear(in_features=64, out_features=32, bias=True)\n","  (out): Linear(in_features=32, out_features=2, bias=True)\n",")"]},"metadata":{},"execution_count":7}]},{"cell_type":"markdown","metadata":{"id":"IZ8xTvZNSBBu"},"source":["## Loading audio files\n","\n","Audios of duration upto 6 sec are considered and those with less than 6 sec  are padded with zeros"]},{"cell_type":"code","metadata":{"id":"Re9HYbgTLtu1","executionInfo":{"status":"ok","timestamp":1639539110595,
…
